src/cnn_u_train_plot.pth (torch, 104839 bytes, 10 tensors)

conv.0.weight f4 [16, 1, 3, 3]
00000000: b2e4 3bbe 71a3 373e 0baf 6a3d 95dd 4fbe
00000010: 03e9 713c 5073 23be 9022 393e 1e24 e9bd
00000020: c274 91bd 451d 60bd 2ada 713e b277 8dbe
00000030: 3c1d 3dbc a4e9 003e 966f dabd bbfa 45be
00000040: b996 38bd 82e4 603c 2d70 a73e d20d 1f3e
00000050: 53ff 86be f51d 68bd 163d f1bd 821f a63e
00000060: 575d 703e 2690 ae3d 90e3 36be aec2 1bbe
00000070: 9742 70be adf8 98be a67e 15be f2d0 84be
00000080: 97ab 223d ffdd 703e 7b20 e9bb ec07 8c3e
00000090: 4421 33bd 5568 a53e 8ac1 0dbe 4322 aa3e
000000a0: 160e 1cbe a49c 0fbe fab6 763e 7b6f c93d
000000b0: aac0 efbd 0d78 e13b 1a7d d73d fffb f1bc
000000c0: 50b3 623e 5926 44bd 9c08 a93e 2cb8 aa3d
000000d0: 7406 363e dab6 643d 0351 503d 5e49 02be
000000e0: 0486 a53e 4b1a 19bd e76f 203e 9b84 0a3e
000000f0: 7cd0 3b3e 90a3 afbd f6ce 6f3e 4a53 3cbe
00000100: 02cf a03e 491d 86be 3f1e d83d b36a 87be
00000110: 3d83 85bd a467 10be 297e d0bb 858b fc3d
00000120: d7c0 353e 199d 38be f74f 893e f041 e13d
00000130: 63fc 0dbe 6655 5cbe ddce 4ebe 998c 2ebe
00000140: 1d98 0c3e e92c 07be 7357 cb3d e115 fdbd
00000150: 8175 ae3c 6917 823d ac2b dabd 71a3 013e
00000160: b465 763d 369a 90be 653e 773c a9b3 9a3d
00000170: afbd 93be 92ea 503c 79f4 31be 2c9a 733e
00000180: 1c71 84be 8068 da3d f2d6 9a3e bc8b 7d3e
00000190: 33f8 d3bb 0253 c6ba 3025 e03d 9e6f 32bd
000001a0: 0b2a 41be df8e 9bbe 983b 98bd bcc9 8b3e
000001b0: fc1d 863d f9ec 343d e68d 333e dab6 3c3e
000001c0: 477a 873e 2b5d 633e bdca 1bbd ff61 a43e
000001d0: c798 7c3e eef7 12bd 665a 1f3d db87 9f3e
000001e0: 9255 25be ac8c 5f3e d7df 99bb ec23 23be
000001f0: 0deb 663e 3523 663e f937 5d3e 474d 1d3d
00000200: ccd8 fd3d 1445 65be 0321 98be 365d 0c3e
00000210: 7632 653e 4b9a 73be 81f5 86be a7a2 09be
00000220: da5e 923d c313 853c b8d3 b33b 7d1b 36be
00000230: 8438 80be 71fb 54be 63a2 8a3e 31f7 153e
-0.18348959 0.17933442 0.05729584 -0.2029937 0.014765027 -0.15961957 0.18079591 -0.11383842
-0.07102348 -0.054715414 0.23618379 -0.27630383 -0.011542615 0.12589127 -0.106658146 -0.19333927
-0.045065615 0.0137263555 0.3270277 0.15532616 -0.26366672 -0.056669194 -0.11779229 0.32445914
0.23473106 0.08523588 -0.17860246 -0.15210983 -0.23462902 -0.29877225 -0.14599094 -0.25940663
0.039714422 0.23522185 -0.0071144677 0.27349794 -0.043732896 0.32306162 -0.1384336 0.33229265
-0.15239748 -0.14024597 0.24093238 0.09835716 -0.1170667 0.0068807662 0.10521908 -0.029539106
0.22138715 -0.047888134 0.3301438 0.08335909 0.17775899 0.055838443 0.05085851 -0.127233
0.32328808 -0.03737859 0.15667687 0.13527147 0.18341249 -0.08576119 0.23418793 -0.18391147
0.31407934 -0.26194218 0.10552644 -0.26448593 -0.06519172 -0.14102036 -0.0063626957 0.12331299
0.17749344 -0.18028678 0.2681882 0.10998905 -0.13865809 -0.21516952 -0.201961 -0.17045821
0.13729902 -0.13200726 0.09928789 -0.12357689 0.021296265 0.063521214 -0.10652861 0.12660004
0.060155585 -0.28242654 0.01509056 0.07553799 -0.28855655 0.012751238 -0.17378415 0.2378928
-0.25867546 0.10664463 0.30242115 0.24760336 -0.0064687966 -0.001513094 0.10944593 -0.043563478
-0.18863694 -0.3038244 -0.074332416 0.2730235 0.06548688 0.044171307 0.17534599 0.18429127
0.26460478 0.2220351 -0.038035143 0.32106015 0.24667655 -0.035880975 0.03890457 0.31158337
-0.16145924 0.21831006 -0.0046958732 -0.15931672 0.22550602 0.22474368 0.21603383 0.038403776
0.12394866 -0.22389632 -0.29712686 0.13707432 0.2238253 -0.23789327 -0.2635918 -0.13440953
0.07146998 0.016244775 0.0054878853 -0.17783923 -0.25043118 -0.20799042 0.27077016 0.14645077

conv.0.bias f4 [16]
00000000: 2745 523e 20b7 69be 5195 8bbe 98a0 273e
00000010: f5a0 05be 4239 253c 9bc0 98be 02a6 683e
00000020: 2a0a 04be 385f 6f3e 260c 95be 0d69 8bbe
00000030: 9d20 a33e 2ba9 21be 0c99 83be a954 3c3e
0.20534192 -0.22823763 -0.27262357 0.16369855 -0.13049681 0.010084452 -0.29834446 0.22719577
-0.12894502 0.23376167 -0.2911083 -0.27228585 0.3186082 -0.15787189 -0.25702703 0.1839167

conv.2.weight f4 [32, 16, 3, 3]
00000000: 221e d6bc 5bad 4d3d c1ea 01bb e6e0 38bc
00000010: d263 d2bc e31c 1fbd 8ffb 1c3d e433 483c
00000020: 739c 40bd fa67 75bd 8edd 04bc 3a84 993d
00000030: 74f5 33bb c815 933c 6362 a13d c00f 9a3d
00000040: 76ef 923d cbbf 77bd fae0 683c 3eae a5bd
00000050: a809 97bd fdfe 3ebc 2507 483d ec58 683d
00000060: 13a3 7f3d 095e 88bd 48ff aabd 2fe4 8b3d
00000070: ec35 36bd 77f5 973d 48d6 88ba 71de c13d
00000080: 918a 173d 672f 883c 00e9 c33d 705c a83d
00000090: ece5 863d 5c7b 893d ebe3 0bbd f037 ea3c
000000a0: a672 aabd 72b8 ce3c fe13 a9bb 2553 5a3d
000000b0: f0dc 9b3d b91b 07bd 1311 59bd fd06 a43d
000000c0: 4a48 96bd ed0d 093d 441e 093d 648e 88bd
000000d0: 83bd 6fbd cdb0 39bb af44 1f3d 1985 073d
000000e0: b3b7 893d 1688 54bd 8c7d 46bc dae7 10bd
000000f0: 44fc 9ebd 68e4 9b3d 4c72 e7bc 5496 af3d
00000100: ca5d b43c fde6 0b3b abf6 ae3c 71f4 6ebd
00000110: b1e6 2dbd 4b0d 39bd 5eb9 b83d be2e 47bd
00000120: 6e5d 90bd 9230 5cbd 1e66 7fbd 4fc5 7b3d
00000130: ff6b 243c 5b8f 443d a1d4 21bd dcd6 cc3c
00000140: 147e aebd 245f 943b 6595 f5bc c618 ec3c
00000150: 0179 653c 7f3b 493c 3afc 893c a04d 9bbc
00000160: b391 80bd 5020 ebbc feb1 463d b87b ff3c
00000170: 9444 ce3b 6929 fbbc aea1 913b b0e4 723c
00000180: 85a0 3bbd 1da4 a6bb 8820 18bd 58ab d4bb
00000190: 717e 7c3b a85d 6b3d 6759 a2bc 7998 423d
000001a0: a9a7 a6bd 4746 7e3d 2096 0fbd ffa1 6e3d
000001b0: 8c3a 82bc 93ea 4ebc f8bd 88bd 6528 8d3d
000001c0: 6247 7abd ea78 403d 0b28 6a3a 97b6 513d
000001d0: 802c 7ebd 9e6d e2bc 36a1 223d f176 a4bd
000001e0: f62a 0c3d 9e31 6abd 42c0 853d 9444 753b
000001f0: f74f 463d 8649 143d 81f7 adbd ed32 cc3c
00000200: 1c7b 883d 82e9 663c 3160 48bd 5721 48bd
00000210: e334 0fbc c885 2b3d 0e93 65bc 9f06 ad3d
00000220: 60dd cabc 1efa 423d 2cc7 283d 9d23 81bd
00000230: 2cc5 a1bc 5660 8f3d 3718 6e3d 8cce 363d
00000240: 6cbf 883b b21e 203b bf49 57bd c8ee 48bd
00000250: ce31 8d3d 68a0 d5bb 570a 21bd e026 b33d
00000260: 4283 e23c f918 5b3d 33b7 bbbc 4e50 ff3c
00000270: 23ad 68bd 3f59 193d 7653 d9bb de99 713d
00000280: 04eb c9bc 4f9b 183d aef8 a6bc 33be 5d3d
00000290: c3c4 99bc 4d2a 2c3c 3a47 813d bc8b 5dbc
000002a0: 269b bb3d ccf4 8dbd 7a33 bf3c 0fb0 45bd
000002b0: 4db2 34bd 4da7 263d 31fb 4b3c 73d2 8dbd
000002c0: 10e7 243d fce4 79bd e20e 553d b77e 813d
000002d0: 84f9 633d 986b 73bc 10c6 9ebc 8aef 3cba
000002e0: 8dd5 1ebd 622e 5abb 41ec ac3d 73f7 87bc
000002f0: 23f2 b0bd 2b20 54bd fd7a faba 1256 c6bb
00000300: 3889 72bc ce33 ff3c 129b f63c 8d70 cd3d
00000310: 9346 0abd 2cce 9a3d 95c1 c9bd b7f6 673d
00000320: e881 0d3b bd1a b9bd e6ef c8bb a957 f2bc
00000330: ab6f 0dbc fbbd 46bd 025e b03c fcfb 81bd
00000340: df42 91bd 8fb9 583b cee8 713d f330 a33d
00000350: 3433 863d bffb 5abd b65e 0dbd 6fae 503d
00000360: b548 ff3c 6678 b3bd bf65 88bd 7247 b33c
00000370: 341d 043d b6fa 9ebd cf7c 353c 3675 1fbd
00000380: 497f d2bb 4cb3 4bbd bb32 cabb fff4 a0bd
00000390: 5538 75bd b2f0 0ebd 4f61 71bd 5e05 e03c
000003a0: c7ca a93d 2791 733d 9cc4 063d 25a9 14bd
000003b0: 6927 1f3d 65dd c0bc 2cdb 8ebd ecdb 5a3d
000003c0: 5a87 f8bc 1088 a2bd 3438 af3d 2490 3e3c
000003d0: 85cb d0bb fda4 153d cd0f 9fbd cf85 c03c
000003e0: 53a8 dd3b 75db 0bbd 933b 82bd 4f80 a7bd
000003f0: a706 f73c 6301 2bbd 8796 4bbc 52c4 b7bc
-0.026137415 0.050214153 -0.0019823762 -0.011284089 -0.025682364 -0.038845908 0.038325842 0.012219403
-0.0470242 -0.059913613 -0.008109463 0.07495923 -0.0027459534 0.017954722 0.07880094 0.07522535
0.0717458 -0.060485642 0.014213795 -0.08089875 -0.07374889 -0.011657474 0.04883494 0.056725428
0.06241138 -0.06658561 -0.08349472 0.06830632 -0.044485018 0.074198656 -0.0010439837 0.094662555
0.03699738 0.016624166 0.095659256 0.08220756 0.06586823 0.06712982 -0.034152906 0.028591126
-0.08322649 0.025234435 -0.005159854 0.05330195 0.076105 -0.032985423 -0.0529948 0.080091454
-0.07338007 0.033460546 0.03347613 -0.06667784 -0.05853034 -0.0028334141 0.03888386 0.033085916
0.06724491 -0.051887594 -0.012114894 -0.03537736 -0.077629596 0.076119244 -0.028252743 0.08573595
0.022017378 0.0021347397 0.021357855 -0.058338586 -0.042456333 -0.045178693 0.09019731 -0.04862856
-0.0704907 -0.053757258 -0.062353246 0.061467465 0.010035514 0.047988277 -0.03950942 0.025004797
-0.08520141 0.004527943 -0.029978463 0.028820407 0.0140059 0.012282251 0.016843904 -0.018957913
-0.0627779 -0.028701931 0.04850959 0.031186923 0.0062947962 -0.030659394 0.0044443225 0.014825031
-0.04580738 -0.005085482 -0.0371404 -0.0064901523 0.0038527513 0.057462364 -0.019818021 0.04750869
-0.081374474 0.06207874 -0.03505528 0.05825996 -0.015897058 -0.012629169 -0.06676859 0.0689247
-0.061103232 0.046990313 0.00089323585 0.051199522 -0.062054157 -0.02764016 0.039704524 -0.08030499
0.03422066 -0.057176225 0.06530811 0.003742491 0.048416104 0.03620293 -0.08494473 0.024926627
0.06664106 0.014093759 -0.04891986 -0.04885992 -0.0087406365 0.04187563 -0.014012111 0.084485285
-0.024763763 0.04760181 0.04120557 -0.06305621 -0.01974734 0.070007965 0.05812856 0.044630572
0.00417321 0.0024432358 -0.052560564 -0.049055845 0.06894265 -0.006519366 -0.0393165 0.08747649
0.02765048 0.053490613 -0.022914505 0.031166222 -0.05680574 0.037438627 -0.006632264 0.05898463
-0.024648197 0.03725749 -0.020382252 0.054136466 -0.018770581 0.010508132 0.063124135 -0.013522085
0.091604516 -0.06931457 0.023339976 -0.048263606 -0.044115353 0.040686894 0.012450025 -0.06924906
0.04025942 -0.061009392 0.052016146 0.06322997 0.05565788 -0.014857195 -0.019381553 -0.0007207325
-0.038777877 -0.0033291806 0.08443499 -0.016597485 -0.08639934 -0.05178849 -0.001911014 -0.006052741
-0.014803223 0.031152632 0.03010324 0.10031233 -0.03375871 0.075588554 -0.09851376 0.05663177
0.0021592323 -0.09038303 -0.0061321137 -0.029582815 -0.008632581 -0.048521023 0.021529201 -0.0634689
-0.07092833 0.0033069586 0.05905991 0.07968321 0.06552735 -0.05346274 -0.03451415 0.050947603
0.0311626 -0.087631986 -0.066600315 0.021884654 0.032254413 -0.07762663 0.01107712 -0.03893014
-0.006423865 -0.049731538 -0.0061705983 -0.07859229 -0.059868176 -0.034897514 -0.05893069 0.02734631
0.0829063 0.0594646 0.032902345 -0.03629412 0.038855944 -0.02354307 -0.069753975 0.05343239
-0.030337978 -0.07936108 0.08555642 0.0116310455 -0.0063719177 0.0365343 -0.07766686 0.023501305
0.0067644506 -0.034144837 -0.06359019 -0.0817877 0.03015454 -0.04174937 -0.012426025 -0.02243248

conv.2.bias f4 [32]
00000000: 1a13 ac3d 4e9f e0bc 8f53 80bd 9555 10bd
00000010: e481 3c3d e388 59bd 3637 b8bb d641 dabc
00000020: 7b4c 513d d65e ec3b 4a6d abbc e06a 15bb
00000030: 2725 313d c7a3 f13c 92b7 913d 578b a43b
00000040: ce21 79bd 1d54 83bc aa5a 8abd 8b72 103d
00000050: 5181 33bb 15f9 5c3d a1b7 323d c20a 853d
00000060: 3983 df3c da2b 73bd c9e6 ae3d 3f50 44bd
00000070: 197e 983d cf5d 263d 0f3a b23d 89f8 9fbd
0.08402081 -0.027419712 -0.062659375 -0.035237867 0.04602231 -0.05310906 -0.005621816 -0.026642721
0.051098328 0.0072134538 -0.020926137 -0.0022799298 0.04324832 0.02949704 0.071150914 0.0050214934
-0.060823254 -0.01603132 -0.06755574 0.035265487 -0.002739031 0.05394848 0.043632153 0.064961925
0.027284252 -0.059367992 0.085401125 -0.04792809 0.07445926 0.040616807 0.0870248 -0.07811076

conv.4.weight f4 [64, 32, 3, 3]
00000000: 053a d73c 26f4 1c3b a4d9 723d d145 c3bc
00000010: 2e0e f0bc c8a9 4d3c b9db ddbc a099 60bb
00000020: 2abd e5bc d3c5 6a3c 0ef1 283d 1de3 453d
00000030: 3f3c 1dbd 565c 4b3d 28ab a23c f631 0ebd
00000040: 55a1 643c 2b0f 5c3d 7242 ddbc b5f5 44bd
00000050: b09b 76bc 48a1 65bd a8bf 7e3c f815 12bd
00000060: daa2 c93c 71f5 2bbd 8fa7 7a3d ce16 453d
00000070: 7e97 143d 8adf 103d 93e2 0f3c 4961 2e3d
00000080: efc3 443d 006b 33bd 8689 903b 9428 483d
00000090: 5abd 30bb 3bde 09bd cc82 05bd 94b1 0a3d
000000a0: 0986 3f3d ff42 063d b617 cabc 8f02 b1bc
000000b0: 57ca 6f3c 8471 43bd 4fdb 713c 89f2 863d
000000c0: a230 c63b 77f5 673d 07ce 813d 1c38 30bd
000000d0: 351e 0dbd f111 eebc daf3 ab3c 0a06 613d
000000e0: 191e 16bd 3f7e b93b 656e 71bc 835e 22bd
000000f0: 765f 503c afa0 183d ae67 15bd 1117 9a3c
00000100: 35de 2d3d b201 603d 7411 90bb 16ba 9cbc
00000110: c127 97bc e4c7 aabc 17e1 613d 4e0a 053d
00000120: f2e1 403d 24c5 833c abc8 af3b e3de 3b3d
00000130: c4da 09bc f6e1 813d 57b8 40bd 1472 32bd
00000140: b442 fb3c 32e3 1dbb d791 243d b974 8dbc
00000150: 7a53 c93c 0130 9e3c 5319 19bd f894 b4bc
00000160: 6a90 3d3d eb76 913b 7dbd ae3c 45c9 1c3d
00000170: 8352 3b3d 2689 2fbc 3dd6 783d 95d8 333d
00000180: 87ff 373d 7eb4 dfbc 3b2f 353d fd31 123c
00000190: 3945 ad3c 4377 5b3d 48b1 263d c596 803d
000001a0: cc89 523d 670e f93b cee5 6bbc 1e10 86bc
000001b0: d08e 613d f5e4 09bc 1f87 153d fccf 1bbd
000001c0: d328 633d 67b4 d7bc 7c2b 2b3d 3acc 6f3d
000001d0: 4a9c 553d 24f3 33bd 4d72 4e3d 08bd 823d
000001e0: 5bca 96b9 c2c5 063d cd00 0abd c0ee 4abd
000001f0: 8bbe 323d 0ec6 ebbc f68f 18bd 3b09 f43a
00000200: c543 603d 83a1 70bb fd8e 493c 0ec2 1b3d
00000210: 0f85 833d 7a7f c2bc 7f3b 1f3b 744c 7b3d
00000220: ef2b 0b3d dc6f 473d 7ff7 20bc 2906 10bd
00000230: 48dd a539 e2ec 46bd fd58 2e3d 67b2 033c
00000240: 8281 5c3c 77ad 1a3d 7f3d 08bd d95a f7b6
00000250: 7735 533d 95ec 2f3d e9a9 063d 3739 323b
00000260: 58c9 283b 6b0d 743d 5251 533d 463e 1f3c
00000270: 60fb adbc 4e60 b5bc 4102 fabc 1d25 39bc
00000280: 1053 8abc c329 793c e0b3 40bd f40f 9b3c
00000290: c03f 02bd 9362 c2bb 46cb 09bc 0c22 9b3c
000002a0: d63c 0cbd e179 00bd 2593 f6bb 9999 363d
000002b0: bd38 993c c3aa 3b3d 4e00 bf3b 6d28 fdbc
000002c0: d584 60bc 9f78 573d 395f 293d 0417 113d
000002d0: c4be 36bd 6e2b 1bbd e6c7 67bc d2c2 023d
000002e0: c112 7d3d 7e3d 32bc b605 94bc 0919 f4bb
000002f0: 7670 febc 4a3e 00bd a6d2 fabc 44aa 1dbc
00000300: 9223 a83a 9b41 ab3c 1b59 3e3c 51ad ce3c
00000310: 8e10 c03b 3f37 45bc b685 d23b 79fb eb3c
00000320: e79e d6ba 9210 aebc ebaa 19bd c274 1b3d
00000330: f40a 4c3d fe52 713d 6024 473d 84ac 0d3d
00000340: fd37 dfbb 553f f039 6111 0a3d b661 09bd
00000350: 24be 3e3d e216 9cbc 6e16 023d 7ab7 d9ba
00000360: cd06 073d c84f 333c bcc3 433d 7596 333c
00000370: c4f0 b63c 5953 813d 5c84 3cbd ae36 563d
00000380: 6649 15bd 1ff6 1bbd 58eb 653d 202f 8f3c
00000390: 73e8 aa3c 079b 10bb c3c2 343d 5e61 853c
000003a0: 04d4 afb9 afb6 91bb b2b7 2fbd 624d 593d
000003b0: 6f13 1f3d e226 233c 297c 023d 28e5 673d
000003c0: 6ef3 5c3d a383 54bd 781d 92bc 74b4 563d
000003d0: d7d9 06bd 677a db3b db2a eb3a 222d 59bd
000003e0: 522b 43bd b6f5 513d 54f6 b13c 259a 3c3d
000003f0: 279c acbc b851 583d 45be 583c bf19 37bc
0.026272783 0.0023949235 0.05928959 -0.023837002 -0.029303636 0.012552686 -0.027082311 -0.0034271255
-0.028044302 0.0143293915 0.041245513 0.048312295 -0.038387533 0.049648605 0.019857004 -0.034715615
0.01395448 0.053725403 -0.027009223 -0.048085887 -0.015051767 -0.056062013 0.015548624 -0.035665482
0.024613786 -0.041982118 0.061194953 0.04811745 0.036277287 0.035369433 0.008782047 0.042573247
0.04803842 -0.043803215 0.0044109253 0.048866823 -0.002696833 -0.0336592 -0.03259544 0.033860758
0.046758685 0.032778736 -0.02466951 -0.021607665 0.014635644 -0.04771568 0.01476176 0.06589229
0.006048278 0.056630578 0.06338125 -0.04302226 -0.034452636 -0.02906129 0.0209903 0.0549374
-0.036649797 0.0056608017 -0.014735793 -0.039640915 0.012718072 0.037262615 -0.03647583 0.018809827
0.04244824 0.054689117 -0.004396612 -0.019131701 -0.018451573 -0.020847268 0.055146303 0.03248053
0.04709048 0.016085215 0.0053644977 0.04586686 -0.008413974 0.06341927 -0.0470508 -0.043565825
0.030671455 -0.0024091718 0.040178146 -0.017267572 0.024575938 0.01931 -0.037377667 -0.02204369
0.046280302 0.004439225 0.02133059 0.038277883 0.045732986 -0.010713851 0.06075119 0.04390772
0.044921424 -0.027307745 0.044234496 0.008923051 0.021151172 0.053580534 0.040696412 0.06278757
0.051400945 0.007600594 -0.014398051 -0.016365107 0.055067837 -0.008416404 0.036505815 -0.038040146
0.055458855 -0.02633114 0.041789517 0.058544375 0.052151002 -0.04393305 0.050401974 0.06383711
-0.00028760996 0.03290344 -0.03369217 -0.049544096 0.043638747 -0.028780963 -0.037246667 0.0018618474
0.05475213 -0.0036717362 0.0123021575 0.03802686 0.06421863 -0.023742426 0.0024296937 0.06135221
0.033977445 0.04869066 -0.009824633 -0.035162125 0.0003163612 -0.048565753 0.042565335 0.00803814
0.013458611 0.037763085 -0.033261772 -7.3717497e-06 0.05156466 0.04295023 0.032876883 0.0027194747
0.0025754776 0.05958311 0.051591225 0.009719437 -0.021238029 -0.022140648 -0.030518653 -0.011300352
-0.01688531 0.015207711 -0.047046542 0.018928505 -0.031799078 -0.005932161 -0.008410281 0.018937133
-0.034237705 -0.031366233 -0.007524865 0.044580076 0.018703813 0.045817148 0.0058288937 -0.030903066
-0.013703545 0.052605268 0.041350577 0.03542234 -0.044615522 -0.037883215 -0.014146781 0.031924076
0.061785463 -0.010878919 -0.01806913 -0.0074492735 -0.031059485 -0.031309403 -0.030618023 -0.009623114
0.0012827984 0.020905307 0.011617924 0.025229128 0.0058613485 -0.0120370975 0.006424631 0.028806435
-0.0016374261 -0.021248136 -0.037516516 0.037953146 0.049815133 0.05891704 0.048618674 0.03458835
-0.0068120942 0.00045823553 0.03370798 -0.03354045 0.04656805 -0.01905388 0.031759672 -0.0016610466
0.03296547 0.010944314 0.04779409 0.010961165 0.022331603 0.063147254 -0.046024665 0.05229824
-0.03644695 -0.038076516 0.056132644 0.017478526 0.020862794 -0.002206506 0.04413105 0.01628178
-0.00033536565 -0.0044468264 -0.042899795 0.053052314 0.038836893 0.009958001 0.03185669 0.056615025
0.05394309 -0.05188335 -0.017836317 0.052418187 -0.032922592 0.006697941 0.0017941849 -0.053021558
-0.047648735 0.05125972 0.021723904 0.04604544 -0.021070553 0.052812308 0.013228958 -0.011175572

conv.4.bias f4 [64]
00000000: 1a67 a1bc cd76 6b3d 57f1 62bc dcd1 773b
00000010: 9c20 27bc 733c d03b 07e4 443d ccd9 853d
00000020: f9ca 533c bd35 9d3c f0a3 5d3d 1ce9 a7bc
00000030: 8795 aabb babd 3f39 4e86 07bc b974 82bd
00000040: 8d59 a33c 6fc1 aebc 8bac 26bd 9101 07bd
00000050: 5f13 6b3c 63f3 b43c 6388 583a 529e 913b
00000060: 666f 2fbd 4c3d 5aba 3a76 dfbc 3f03 433d
00000070: 73df c83b 2030 283b 8d68 da3c 3934 6bbd
00000080: 0b59 ffbc 7bc1 17bd 62aa 9abc b14a 41bd
00000090: 71d7 c63c c1d4 283d d202 fb3a ed07 633b
000000a0: bfdc 75bd 6986 5a3d 80be a73c decd 2bbd
000000b0: 4ab4 4abd b37f 883d 56fe 743d b140 333c
000000c0: 7be9 16bb ed70 d5bb 0325 203c 951b bdbb
000000d0: 2c4e c23c 2501 c83c 9505 9b3b 88c0 a73c
000000e0: e0bd 8e3b 4a3a d2bb fbc4 063d bfc2 233d
000000f0: ffde 153d 0a12 ecbb f6a5 203d 43b7 35bd
-0.019702483 0.057486344 -0.013851485 0.0037814295 -0.010200646 0.0063548624 0.048069026 0.06535682
0.01292681 0.019190663 0.05411142 -0.020496897 -0.0052058133 0.00018285858 -0.008271767 -0.06369919
0.019940162 -0.02133247 -0.040691894 -0.03296048 0.01434788 0.022088712 0.00082600693 0.004443922
-0.042830847 -0.0008325174 -0.027278055 0.047610518 0.006130153 0.002566345 0.026661182 -0.05742285
-0.031170389 -0.03704975 -0.018880073 -0.047190372 0.024272652 0.041218523 0.0019150621 0.0034642175
-0.060024973 0.05335084 0.02047658 -0.041944377 -0.049488343 0.06664982 0.059812866 0.010940717
-0.0023027349 -0.006513706 0.009774449 -0.0057711103 0.023718916 0.024414608 0.00473089 0.020477548
0.004356131 -0.00641564 0.0329027 0.039980646 0.03658962 -0.007204299 0.039220773 -0.044364225

fc.0.weight f4 [32, 65]
00000000: d342 90bd c95d 96bd 4e69 8fbc cea0 bdbd
00000010: 2e31 0a3d 3aba 873d 98aa e4bc d062 d73c
00000020: 678c b1bc 3693 14bd f04f d4bd ebac e13d
00000030: bd6a 89bd e177 b2bd 5d99 69bd 825a 3a3a
00000040: 649b e43d 2037 9c3d 256f efbd e30b 8d3d
00000050: 5735 103c a154 943d 628b 893d ea64 4abd
00000060: 0fd4 023e db6b 8cbd 6ec7 74bd cfad f7bc
00000070: 6c39 003d 19b4 ee3d 5d68 ee3c dec4 d73d
00000080: fd9b e13d 15dd 0abd 0bd6 bdbd bb68 c63d
00000090: 493d b8bd 1995 ca3d aa07 ef3d 2a09 4bbd
000000a0: 4b48 aebd e16a 093e 8a13 023e 85a6 cfbb
000000b0: e009 e03d 1dde e03d b929 e43c d7c7 af3d
000000c0: 4113 2c3d d161 cbbc 9144 b0bd ff4a 48ba
000000d0: aab1 cebb d084 11bd b895 dcbd 7b9d d1bc
000000e0: c297 493c ee1d 13bd 4530 d8bd 6886 323d
000000f0: c5fc 063e e443 313d 72b0 c03d 7cf9 6c3c
00000100: 086c bd3e cbac 8abd a8d8 f3bd 1911 213d
00000110: 3f88 e73d 7428 68bd 35d2 e2bc e216 f53d
00000120: b472 cbbd 1882 9f3b b1a6 c13d 4f2d 2e3c
00000130: ef43 ccbd cbf8 d9bd 31a1 803d 6740 a5bd
00000140: 5eaa fbbc 8aab 64bd c5f7 533d 19bc 0bbd
00000150: c5d1 253d bbae 953c 8c8d 84bd 3410 f1bd
00000160: 3b62 cc3d 53f2 f93d 9fe0 ba3d 29fe 933a
00000170: aecf a1bd 11e5 a8bd fc52 933d c500 bd3c
00000180: 0aa1 47bb ae89 623c 6e05 bbbd a3b1 c0bd
00000190: ede0 283d 1a0e 693d fbd0 bcbd 1895 18bd
000001a0: 260a 653d 9fa3 34bb 8031 b4bd d978 ee3d
000001b0: 17af e43c cb7c 2bbc 748b f1bd 9e24 2f3d
000001c0: 90d5 9dbd cd22 f73d 0844 a8bd 8025 2bbd
000001d0: 9a01 963d 7baa 313d 5304 8f3b 3313 ac3d
000001e0: 3cd1 403c ec8a 523d 16c2 da3d 7314 273c
000001f0: 5ee4 4a3d 7312 763d d8ea f4bc 87c3 ed3d
00000200: 412b 3f3d fd2a 2d3d d6ad c63d 99ce aebc
00000210: 6a43 4dbc 47e5 a0bd 9801 6dbd fdf5 bebd
00000220: 6dcb b63d f8d5 cbbd 989a 83bc 851f f93c
00000230: a156 443d 75a0 b1bd aad1 a33d f28a c3bc
00000240: 474e 173d b917 afbd 7fdc f33c b198 043c
00000250: c9c6 d63c 6e12 093d ee24 f73d 7530 9f3a
00000260: 4609 31bc dbf7 f0bd 24c1 edbd 5f3a 753c
00000270: cf7e f43d deaf cd3b 2ee5 3ebd 662f 29bc
00000280: 3107 dabd 6bff dc3c 5730 b5bd ae5b a23d
00000290: 5ec3 34bd c683 923d d968 0e3c f7ef 383d
000002a0: 5933 c03c 35b6 cc3d 91b9 8ebd fa81 fbbd
000002b0: 91f3 81bd df97 ec3d 7972 a63d a515 a73d
000002c0: 2d67 3d3b 63a1 43bd 773d eabd 2999 79bd
000002d0: 096b 8dbc cc93 cebd 5c11 743d c079 1cbd
000002e0: ea97 a1bd 93f9 413d 1889 db3b 48eb adbd
000002f0: 3ab1 463d db17 0bbd 30b7 e2bd 936f 833d
00000300: 1852 d1bd c80a 24bd 883e 873d 3a2b 45bd
00000310: c433 4abc 15ee 1b3d 0f49 c6bd a2c2 8e3d
00000320: 7beb e8bd e179 923d cc93 72bd eb4a 6e3c
00000330: d420 bfbd 98d6 ac3d 92fc d43c 6738 86ba
00000340: cae8 99bc 77f3 c8bd b3e6 c2bd 0bf8 013e
00000350: 1d82 d8bd 21ac 9abd b769 523b e868 62b9
00000360: ccfc ebbc 9f01 bc3c d40d 65bc ef42 dc3d
00000370: 7a1a 6d3d 3ac7 f83d 1617 e2bd c23a bbbd
00000380: 0512 8fbd 7e6f 6bbd 4ac0 023e 36c5 8c3d
00000390: 68e3 a33b 28e8 5a3d 197a 9ebd 3912 adbd
000003a0: b7ea 6bbd 9b8d 47bd 403d 593d 27a9 f23d
000003b0: 1913 f13c 0f51 d6bc 521f c9bd b2f1 90bd
000003c0: ba3a 8bba 125d 713d 7e14 843d 5229 aebd
000003d0: d4b6 91bd d11a 603c 80df 1b3c 8bfe 543d
000003e0: 72c1 943d f180 b9bd 9d25 a6bd 438e f63d
000003f0: dd3f 813d 1658 743d 7763 9d3d 7c79 953d
-0.07043996 -0.07342107 -0.017506268 -0.09259187 0.033738308 0.06627317 -0.027913377 0.026292235
-0.021673394 -0.036273204 -0.10366809 0.110193096 -0.06709812 -0.08714271 -0.057031024 0.00071088236
0.11162451 0.07627702 -0.11691121 0.06887033 0.00880178 0.07242704 0.06716038 -0.049412645
0.12776206 -0.06856509 -0.059760503 -0.030234246 0.03130476 0.11655445 0.029102499 0.10535596
0.110160805 -0.033902247 -0.09269341 0.096879445 -0.08996064 0.09891719 0.11671384 -0.049569286
-0.085098825 0.13419677 0.12702766 -0.0063369893 0.109393835 0.10979865 0.027851926 0.08583038
0.04201055 -0.024826916 -0.08606828 -0.000764057 -0.0063078003 -0.03552705 -0.10770744 -0.025587788
0.012304248 -0.035917215 -0.10556082 0.04358521 0.13182361 0.043277636 0.09408654 0.014463779
0.36996484 -0.06771239 -0.11906558 0.039322946 0.11305284 -0.056679204 -0.027688125 0.11967255
-0.09933987 0.0048678033 0.09455622 0.01063092 -0.09973895 -0.106431566 0.06280745 -0.080689244
-0.030720886 -0.055827655 0.051749963 -0.03411493 0.040483255 0.018271795 -0.064723104 -0.117706686
0.099796735 0.12204423 0.09124874 0.0011290956 -0.0790094 -0.08246816 0.071935624 0.023071656
-0.0030460977 0.013826771 -0.09131895 -0.094088815 0.04123013 0.056898214 -0.09219547 -0.037251562
0.05591788 -0.0027563346 -0.08798504 0.116441436 0.02791552 -0.010466765 -0.11794177 0.04275953
-0.077067494 0.120671846 -0.08216101 -0.04178381 0.07324524 0.043375473 0.004364529 0.084020995
0.011768635 0.051402017 0.1068155 0.010197747 0.049534194 0.06007619 -0.029897138 0.116095595
0.04667211 0.042277325 0.09701125 -0.021338748 -0.01252828 -0.07856231 -0.057862848 -0.09324262
0.08925519 -0.09952921 -0.016064927 0.030410537 0.04793418 -0.08673183 0.079989746 -0.023869965
0.036939885 -0.085494466 0.029768227 0.008093045 0.026217835 0.03346484 0.12067591 0.0012145179
-0.010805434 -0.11766025 -0.11609104 0.01496753 0.11938249 0.0062770685 -0.04660528 -0.010326242
-0.10645903 0.026977262 -0.08847111 0.07927643 -0.04413163 0.0715404 0.00869199 0.045150723
0.023461984 0.09995691 -0.06968988 -0.122806504 -0.06345285 0.115524046 0.08127303 0.08158425
0.002890061 -0.047761332 -0.11437505 -0.06093708 -0.017262952 -0.10086784 0.059586868 -0.038202047
-0.078903034 0.047357153 0.0066996925 -0.08492142 0.04850886 -0.033958297 -0.110700965 0.064177655
-0.10220736 -0.040049344 0.06603724 -0.048136927 -0.012341443 0.03806885 -0.096819036 0.06970717
-0.11373039 0.07152153 -0.05922298 0.014544229 -0.09332433 0.08439368 0.025999341 -0.0010240198
-0.01878776 -0.09812062 -0.09516659 0.12692277 -0.10571692 -0.07552362 0.0032106468 -0.0002159212
-0.028807066 0.022949992 -0.013980348 0.10754954 0.05788658 0.121473745 -0.110395595 -0.091420665
-0.06985859 -0.057479374 0.12768665 0.068735525 0.005001474 0.053444058 -0.07738132 -0.08450741
-0.05759689 -0.04871903 0.05303693 0.118486695 0.029428052 -0.026161699 -0.09820427 -0.0707735
-0.001062236 0.05892665 0.06449221 -0.08503975 -0.0711495 0.0136782685 0.009513736 0.052000564
0.07263459 -0.09057797 -0.08112643 0.12038853 0.06311009 0.059654318 0.07684987 0.07298562

fc.0.bias f4 [32]
00000000: 5369 bdbd cee9 fbbd 9737 8cbc eb9a f13d
00000010: cee2 633b 1bdc ea3c 6929 89bd 7fad a9bd
00000020: 1b41 2e3d 9919 903d 808f 193d 955c 6b3d
00000030: c968 f2bd ab51 ab3d 1ca1 cdbd 1db9 dd3d
00000040: f8ce 273d be07 033e 8544 61bb f06e b73d
00000050: fe20 083d 5bce b3bd fd98 e5bc 0328 94bd
00000060: 8705 003e 7b88 1abd 6f66 e23d e8ee bcbd
00000070: 148f 213d 70e8 95bd 20e5 03bd 0808 a13d
-0.092486046 -0.12300454 -0.017116351 0.117971264 0.0034772637 0.028669408 -0.066973515 -0.08285045
0.04254256 0.07036132 0.037490368 0.05746134 -0.118363924 0.08365186 -0.10040495 0.10826323
0.040968865 0.12795922 -0.0034373116 0.089567065 0.03323459 -0.087795936 -0.028027052 -0.07234194
0.12502109 -0.037727814 0.11054694 -0.09225255 0.03944309 -0.073197246 -0.032200933 0.0786286

fc.2.weight f4 [2, 32]
00000000: df0d 8b3e d97e 323e f28f fabd ccdb d4be
00000010: 9dc0 2d3e 01df 133e a9d0 9fbe 41d3 8cbd
00000020: 4b82 aa3e 834a 443e 799e c43d bc1b 273e
00000030: 3d05 d6bd d9fa a3be 67ae 233e 9ecc 643e
00000040: 4e79 3c3e 9c55 333e 5e75 d3bd b68d 893e
00000050: 96ff 983e 93dd bd3e c98b 633d 621c 2fbe
00000060: 9e71 ee3d 6434 88be 514c 25be c3aa 9b3e
00000070: ea97 84bb 588d c9be b18c a53e 0f32 c33e
00000080: 4dba d3bd 6754 2e3d e1b3 adbd 6903 543e
00000090: 4278 10be c2e0 013e 19c7 b0bd 80b1 163d
000000a0: a15d e53d b8a6 0b3e 47df 8d3d 65ca 22be
000000b0: 923e c13d ef02 e53d fc3c 603d 00fc 2b3d
000000c0: f0b2 4e3d 8000 593c 52a5 d03b 2b9a 18be
000000d0: e287 b4bd 0721 41bd 53c7 333d 1d77 67bd
000000e0: aec8 803d 818c 38bd b1f6 d9bc dfed c13d
000000f0: a2b3 babd 7136 16bc 4364 04bc 8ee9 f7bc
0.2715902 0.17431201 -0.12234487 -0.41573942 0.16968007 0.14440538 -0.31213883 -0.06876231
0.3330253 0.19169049 0.09600539 0.16319174 -0.10450218 -0.3202732 0.15984498 0.2234368
0.18405649 0.17513126 -0.103251204 0.2686593 0.29882497 0.3708311 0.05555323 -0.17100671
0.116427645 -0.2660247 -0.16142394 0.30403718 -0.00404643 -0.3936565 0.32333902 0.3812413
-0.103382684 0.04256096 -0.08481575 0.20704426 -0.14108375 0.12683395 -0.08631725 0.03679037
0.11199499 0.13637817 0.069273524 -0.1589752 0.094357625 0.111822 0.05474566 0.041988373
0.050463617 0.013244748 0.006367364 -0.1490256 -0.0881498 -0.047150638 0.043891262 -0.05651008
0.062882766 -0.04505587 -0.02660689 0.094691984 -0.091162935 -0.009168253 -0.008080545 -0.030262735

fc.2.bias f4 [2]
00000000: 665b adbc 0e7b 26be
-0.021161746 -0.16257879
